Started reading data file
Data Files loaded!


Simulation run on: 2020-04-19 10:34:51.253596


Data reading complete!
Number of train batches: 4531
Number of validation batches:  750
Number of test batches:  750
Total Items: 3474

Model(
  (encoder): Encoder(
    (linear1): Linear(in_features=200, out_features=150, bias=True)
    (activation): Tanh()
  )
  (decoder): Decoder(
    (linear1): Linear(in_features=64, out_features=150, bias=True)
    (linear2): Linear(in_features=150, out_features=3474, bias=True)
    (activation): Tanh()
  )
  (item_embed): Embedding(3474, 256)
  (gru): GRU(256, 200, batch_first=True)
  (linear1): Linear(in_features=150, out_features=128, bias=True)
  (tanh): Tanh()
)

Model Built!
Starting Training...

| epoch   1 |  1000/ 4531 batches | ms/batch 38.54 | loss 677.8392
| epoch   1 |  2000/ 4531 batches | ms/batch 41.24 | loss 594.9770
| epoch   1 |  3000/ 4531 batches | ms/batch 40.69 | loss 595.9130
| epoch   1 |  4000/ 4531 batches | ms/batch 41.04 | loss 597.6100
| epoch   1 |  4531/ 4531 batches | ms/batch 41.30 | loss 539.6044
Started reading data file
Data Files loaded!


Simulation run on: 2020-04-19 12:03:42.522695


Data reading complete!
Number of train batches: 4531
Number of validation batches:  750
Number of test batches:  750
Total Items: 3474

Model(
  (encoder): Encoder(
    (linear1): Linear(in_features=200, out_features=150, bias=True)
    (activation): Tanh()
  )
  (decoder): Decoder(
    (linear1): Linear(in_features=64, out_features=150, bias=True)
    (linear2): Linear(in_features=150, out_features=3474, bias=True)
    (activation): Tanh()
  )
  (item_embed): Embedding(3474, 256)
  (gru): GRU(256, 200, batch_first=True)
  (linear1): Linear(in_features=150, out_features=128, bias=True)
  (tanh): Tanh()
)

Model Built!
Starting Training...

| epoch   1 |  1000/ 4531 batches | ms/batch 32.78 | loss 662.7694
| epoch   1 |  2000/ 4531 batches | ms/batch 35.36 | loss 606.9329
| epoch   1 |  3000/ 4531 batches | ms/batch 36.02 | loss 549.7029
| epoch   1 |  4000/ 4531 batches | ms/batch 41.48 | loss 585.3212
| epoch   1 |  4531/ 4531 batches | ms/batch 36.69 | loss 538.7098
…
